models/twolayer.pt (torch, 21079 bytes, 5 tensors)

weight f4 [50, 80]
-0.024202107 -0.045789238 -0.00022709927 0.004868141 0.043684013 0.06501611 -0.11115946 0.048891135
0.04379407 -0.066124864 0.0006583456 0.06748252 0.06487934 0.05463766 -0.05360034 -0.06712092
0.012142027 -0.041899297 -0.055658735 0.06913705 -0.10458015 0.003676249 -0.03746267 -0.082737364
0.071034595 0.0014922984 0.06605046 0.011460553 0.064386666 -0.020059852 -0.019393967 -0.10959236
0.011040767 0.082864344 0.07611915 0.060392465 -0.10121525 -0.089089505 -0.033532385 0.026638728
-0.09686733 -0.04050119 0.07164956 -0.06395763 0.049096614 0.04076613 -0.07521973 0.087428816
0.022848593 0.09179177 0.058006804 -0.05715471 0.04752771 0.085803986 -0.08813947 -0.106657945
0.0022310533 0.014052728 -0.04205778 -0.077829584 -0.1152218 -0.088948734 -0.10258511 -0.061810978
-0.03700978 0.025874987 -0.03122517 0.0344688 0.0115748085 0.061528984 0.038942296 -0.07964437
-0.08227938 0.08010721 -0.017202143 -0.09108858 -0.10947681 -0.08409257 0.05374346 0.006425548
0.9976224 0.42395526 0.9998841 1.0749582 0.16597578 0.05851131 0.20395602 1.0108637
0.18432222 0.14368956 0.35150447 -0.16600165 -0.0022324354 1.1981884 0.06738397 0.103323795
0.27058524 -0.36947018 -0.1794701 0.90866035 -0.08719799 -0.10839152 0.121497385 -0.5141057
0.07368589 0.7457638 -0.31807122 -0.37937713 -0.24135703 -0.8058545 0.18710338 -0.39215416
-0.37020037 -0.29998398 -0.33906817 -0.24962594 0.40105745 -0.41200143 -0.13120194 -0.100085355
-0.33989808 0.14628242 0.18012436 0.057653725 -0.08671107 -0.24312873 -0.17865586 0.45190084
-0.23310381 -0.78312624 -0.111349955 0.052899864 -0.13472947 0.3642216 -0.22499888 -1.0696985
-0.08116784 -0.18888667 -0.08488969 0.15314636 0.07206033 -0.047851976 -0.091649994 -0.12151415
-0.1866387 -0.41687405 0.19005947 0.65603054 -0.021648481 0.062387135 0.027967246 -0.44379786
0.29638082 1.2903446 -0.051789008 0.030607028 0.1867578 -0.5947107 -3.4053 -2.477969
1.1364864 -0.033461086 1.1095854 1.007171 0.23288085 0.08440893 -0.08636421 0.13939919
0.22967033 0.31029668 0.4026649 -0.18913877 -0.099708244 0.24941516 0.07783836 0.21637158
0.16284241 -0.1912471 -0.2709826 0.068763494 0.025052149 0.13632074 0.17337671 -0.46144804
0.031869106 0.40608063 -0.13041867 -0.13620806 -0.18459222 -0.5422819 0.110989064 -0.22011821
-0.24312404 -0.39140627 -0.5761506 -0.3550236 0.42349565 -0.06541214 -0.28099796 -0.31557497
-0.50637525 0.018192638 0.18121007 0.0841892 -0.15667142 -0.36729923 -0.4266909 0.34127134
-0.30748063 -0.3817825 -0.24749713 -0.2605184 -0.34899572 0.108930096 -0.19155517 -0.6550248
-0.20107515 -0.25278574 -0.37353805 -0.20378862 -0.0060287397 -0.06881666 -0.2754525 -0.1648221
-0.08060323 -0.43491212 0.18704194 0.36417076 0.08158536 0.04635087 0.011059605 -0.57378286
0.34465033 0.35879198 0.054005295 0.23189217 0.31432515 -0.39263844 -3.8298266 -1.2519073
0.047824636 0.04763339 0.017357748 -0.08427426 -0.07828897 -0.058236994 0.094057105 -0.08443016
0.062077172 -0.10901301 0.027295854 0.02522017 0.083251044 -0.102067634 0.068641774 -5.6056582e-05
00000000: 7f43 c6bc 7f8d 3bbd 7f21 6eb9 ed84 9f3b
00000010: 02ee 323d 2b27 853d 92a7 e3bd 1242 483d
00000020: 6961 333d 796c 87bd d394 2c3a 4734 8a3d
00000030: 76df 843d bdcb 5f3d 088c 5bbd b176 89bd
00000040: 5aef 463c 999e 2bbd 6afa 63bd ba97 8d3d
00000050: 1e2e d6bd 39ed 703b 7572 19bd 3572 a9bd
00000060: 967a 913d 3a99 c33a 7745 873d 0bc5 3b3c
00000070: 28dd 833d 8f54 a4bc 19e0 9ebc f671 e0bd
00000080: 55e4 343c c8b4 a93d 5be4 9b3d 175e 773d
00000090: f149 cfbd 8f74 b6bd 4159 09bd 7639 da3c
000000a0: 6162 c6bd 93e4 25bd 01bd 923d 38fc 82bd
000000b0: 8819 493d 63fa 263d cd0c 9abd e10d b33d
000000c0: f92c bb3c 53fd bb3d 8b98 6d3d 0f1b 6abd
000000d0: 6bac 423d 00ba af3d 7782 b4bd 7b6f dabd
000000e0: dd36 123b 6a3d 663c c744 2cbd 1e65 9fbd
000000f0: 68f9 ebbd c12a b6bd 2418 d2bd 822d 7dbd
00000100: 9197 17bd c8f7 d33c edcb ffbc 282f 0d3d
00000110: 44a4 3d3c d105 7c3d f581 1f3d 961c a3bd
00000120: 1782 a8bd 400f a43d 82eb 8cbc a68c babd
00000130: 6135 e0bd ba38 acbd 1a22 5c3d 678d d23b
00000140: 2e64 7f3f aa10 d93e 68f8 7f3f 3b98 893f
00000150: 8ef5 293e 8ea9 6f3d d9d9 503e fb63 813f
00000160: f7be 3c3e 5b23 133e 65f8 b33e 56fc 29be
00000170: 0d4e 12bb 3d5e 993f 9b00 8a3d 6d9b d33d
00000180: 268a 8a3e 322b bdbe 03c7 37be f79d 683f
00000190: dc94 b2bd 60fc ddbd 9fd3 f83d 6e9c 03bf
000001a0: a1e8 963d 60ea 3e3f 3bda a2be b83d c2be
000001b0: 4c26 77be 7b4c 4ebf 0798 3f3e 6ec8 c8be
000001c0: e78a bdbe 8097 99be 589a adbe f19d 7fbe
000001d0: 6757 cd3e daf1 d2be cd59 06be 8df9 ccbd
000001e0: 1f07 aebe 0fcb 153e 8572 383e 5026 6c3d
000001f0: 9395 b1bd bdf6 78be 90f1 36be 8c5f e73e
00000200: c4b2 6ebe f67a 48bf 720b e4bd 87ad 583d
00000210: 86f6 09be 417b ba3e 1b66 66be e1eb 88bf
00000220: 533b a6bd 826b 41be a5da adbd 66d2 1c3e
00000230: 5e94 933d 6f00 44bd feb2 bbbd 69dc f8bd
00000240: 371e 3fbe 8470 d5be f39e 423e 9ef1 273f
00000250: 2858 b1bc a789 7f3d 911b e53c 7939 e3be
00000260: 3abf 973e 032a a53f b620 54bd 97bb fa3c
00000270: 703d 3f3e f63e 18bf 6ff0 59c0 0b97 1ec0
00000280: 6378 913f 7e0e 09bd e506 8e3f fbea 803f
00000290: 5178 6e3e 97de ac3d b8df b0bd a9be 0e3e
000002a0: b32e 6b3e 35df 9e3e 182a ce3e 98ad 41be
000002b0: d633 ccbd b066 7f3e b869 9f3d 8390 5d3e
000002c0: 29c0 263e 48d6 43be 3bbe 8abe e0d3 8c3d
000002d0: 2a3a cd3c aa97 0b3e aa89 313e eb42 ecbe
000002e0: 2e89 023d cde9 cf3e 798c 05be 207a 0bbe
000002f0: be05 3dbe fdd2 0abf 3c4e e33d ab66 61be
00000300: 82f5 78be 6766 c8be 9b7e 13bf a7c5 b5be
00000310: 6cd4 d83e cdf6 85bd f7de 8fbe 0b93 a1be
00000320: cfa1 01bf ba08 953c 228f 393e 636b ac3d
00000330: 796e 20be a50e bcbe 3b77 dabe 1ebb ae3e
00000340: 1a6e 9dbe ff78 c3be e36f 7dbe ab62 85be
00000350: 91af b2be be16 df3d 0a27 44be b5af 27bf
00000360: a5e6 4dbe 226d 81be 6140 bfbe f7ad 50be
00000370: bc8c c5bb c0ef 8cbd 1c08 8dbe 20c7 28be
00000380: 4e13 a5bd cdac debe ec87 3f3e 9774 ba3e
00000390: 3a16 a73d 69da 3d3d 5833 353c 6fe3 12bf
000003a0: 0276 b03e 95b3 b73e a834 5d3d 2475 6d3e
000003b0: 3aef a03e e807 c9be e11b 75c0 803e a0bf
000003c0: c4e3 433d 3b1b 433d d631 8e3c fc97 acbd
000003d0: f855 a0bd ea89 6ebd 03a1 c03d b8e9 acbd
000003e0: a244 7e3d 3742 dfbd 8e9b df3c 889a ce3c
000003f0: 867f aa3d d608 d1bd 0f94 8c3d 4c1e 6bb8

bias f4 [50]
-0.008094646 0.38701385 0.20886151 0.055206385 0.06408797 -0.08964486 0.3997231 0.15978023
0.056847084 0.32659328 0.022601124 -0.09584704 0.2567602 0.39361605 0.43330398 0.16950704
-0.09286525 0.07897694 0.2227794 -0.107961126 0.09989572 0.21173587 -0.073146686 -0.101212874
-0.012604521 0.0037681982 0.20386428 -0.06656183 0.5019377 0.23917678 0.3147992 0.10388511
0.033090454 0.08087978 0.083580226 -0.029197237 0.049943756 0.35067517 -0.05583231 -0.04430422
0.41271287 0.019629516 0.3683589 0.0711812 -0.08442896 0.21003875 0.0024117157 0.09674794
-0.10124252 0.08106053
00000000: 689f 04bc ae26 c63e cbdf 553e 1720 623d
00000010: 8e40 833d b997 b7bd 82a8 cc3e 6e9d 233e
00000020: 7dd8 683d 3c37 a73e fe25 b93c 744b c4bd
00000030: 1376 833e 0b88 c93e 05da dd3e 4193 2d3e
00000040: 2330 bebd a9be a13d 4820 643e b91a ddbd
00000050: 2196 cc3d 4ad1 583e eecd 95bd b248 cfbd
00000060: 3183 4ebc e0f3 763b ccc1 503e 9251 88bd
00000070: fd7e 003f c2ea 743e 5c2d a13e b7c1 d43d
00000080: db89 073d 4ca4 a53d 1c2c ab3d 0b2f efbc
00000090: d391 4c3d b28b b33e 6cb0 64bd 5778 35bd
000000a0: 1a4f d33e 14ce a03c 8a99 bc3e 73c7 913d
000000b0: 17e9 acbd 6614 573e e00d 1e3b c923 c63d
000000c0: 3d58 cfbd 1003 a63d

weight f4 [10, 50]
0.11033954 -0.10564878 -0.033744495 0.124152765 -0.031161174 -0.012822837 -0.009419004 0.0046794564
-0.03318999 -0.06754622 -0.0421044 0.14096455 -0.057694774 -0.16015114 -0.09135126 0.07067751
0.11813302 -0.041408114 -0.1004905 -0.12596723 -0.04143941 0.093909 -0.02611567 -0.016150385
0.08740313 0.03943956 0.09305088 -0.02658423 -0.14237675 0.076571085 -0.065704964 0.13979922
-0.10858986 -0.11280455 0.0065655857 -0.10367631 0.0057446393 0.005916745 0.025693193 -0.112375945
0.015343908 0.035234213 0.027968686 -0.10408138 0.0073770285 0.1174506 0.13818754 -0.026586674
-0.08717115 -0.034600288 0.03494302 0.16702563 -0.15195002 0.0058571696 0.03326705 -0.08829546
0.0797794 0.5558905 -0.1127968 0.20871888 0.06953641 -0.076761894 0.4378126 0.13779624
-0.6569971 0.19851875 -0.011306912 0.09604502 0.26843837 0.0607344 0.30026495 -0.16146171
-0.12503384 0.15450525 -0.12197445 -0.035844713 0.21676566 0.072264925 0.029609293 0.66709954
0.60810214 0.094698004 -0.06291035 -0.05361665 -0.45222792 -0.10094572 -0.07029658 1.5379249
-0.054258257 0.111282 -0.743197 0.114003256 0.17262793 0.1417615 -0.063932486 0.42661017
-0.027501509 0.01386119 -0.02689505 0.087735385 0.06692502 -0.14482413 -0.012682791 0.12070545
-0.110367276 -0.08202942 -0.1197433 0.10174242 -0.082688056 -0.08483821 -0.06497121 0.06974207
0.06617589 -0.020743342 -0.06364045 0.0001626957 0.08514703 0.01603719 -0.04203727 -0.043865517
-0.059596896 0.018646194 -0.09423516 -0.07877606 0.085124955 0.009222627 -0.0628597 -0.020216078
-0.09811058 0.07921089 -0.14955482 -0.13698322 0.09963681 0.013724566 -0.05834516 -0.043667644
-0.040306553 0.054622322 0.00043730438 -0.046815425 -0.11037431 -0.021512376 -0.16942641 0.057591867
0.014122695 0.09396714 0.12774323 0.032200262 -0.062569074 -0.092294335 0.017554628 -0.1302057
-0.30542722 0.13600007 0.034934357 -0.036731165 0.005954769 -0.4709133 0.030480148 -0.06259922
0.087298244 0.06800635 -0.30489394 -0.041890077 0.48241547 -0.14363295 0.019112227 -0.002146804
-0.08624481 0.09360845 -0.05092445 -0.23094547 0.08490016 -0.107985176 -0.058407445 0.1273848
-0.16267662 -0.1262432 0.15133937 -0.6817874 -0.52808577 0.011035844 -0.12982656 0.015798409
-0.18010473 0.07248875 -0.035642393 -1.1880443 0.039464816 -0.007671654 0.57154894 0.13681452
0.027440686 -0.00050040503 0.1157389 -0.2618216 0.032725483 0.09016293 -0.040947877 -0.10785422
-0.08272073 -0.15599778 0.03649695 0.05056712 -0.018708616 -0.030451 -0.12186754 0.03406473
0.08413869 -0.0033431663 -0.13137282 0.010037497 0.003925291 -0.025666201 -0.10649717 -0.16750363
-0.028152294 -0.08104831 -0.08267858 0.13249587 -0.15857962 -0.04177808 -0.029208995 -0.10018097
-0.10259855 -0.014895618 -0.023498863 -0.12474817 -0.14800555 -0.11080482 0.048858907 -0.11621525
0.061036244 0.061209857 0.0106819775 -0.1156944 0.113296404 -0.11983147 -0.088027984 -0.05089637
-0.0076934886 -0.042366877 -0.052156687 0.11537592 -0.07928774 -0.1643206 -0.04933004 0.13205893
-0.08773808 0.033813328 0.07791622 0.0019327638 -0.1603698 -0.12845759 0.10433984 0.04279922
00000000: b2f9 e13d 635e d8bd ab37 0abd ce43 fe3d
00000010: b845 ffbc e016 52bc 2b52 1abc 2056 993b
00000020: 3af2 07bd ac55 8abd aa75 2cbd 0359 103e
00000030: 5b51 6cbd a9fe 23be 5f16 bbbd 5fbf 903d
00000040: baef f13d 8e9b 29bd f7cd cdbd 8efd 00be
00000050: 5fbc 29bd 5d53 c03d 88f0 d5bc d04d 84bc
00000060: 6a00 b33d 608b 213d 7691 be3d 2cc7 d9bc
00000070: 36cb 11be 4dd1 9c3d 5390 86bd 8727 0f3e
00000080: 5c64 debd 1206 e7bd 2024 d73b 3f54 d4bd
00000090: 873d bc3b 41e1 c13b 887a d23c 5c25 e6bd
000000a0: 0465 7b3c c051 103d 961e e53c 9e28 d5bd
000000b0: 00bb f13b f189 f03d 0981 0d3e 4ccc d9bc
000000c0: ca86 b2bd 08b9 0dbd 6a20 0f3d c408 2b3e
000000d0: c998 1bbe 80ed bf3b 0843 083d 40d4 b4bd
000000e0: 6263 a33d d74e 0e3f 0202 e7bd 67ba 553e
000000f0: 1b69 8e3d 5735 9dbd f928 e03e 751a 0d3e
00000100: f630 28bf 8048 4b3e a040 39bc 40b3 c43d
00000110: c170 893e a2c4 783d 54bc 993e 3856 25be
00000120: df08 00be a036 1e3e becd f9bd e8d1 12bd
00000130: d1f7 5d3e a2ff 933d 308f f23c 09c7 2a3f
00000140: 95ac 1b3f 07f1 c13d 24d7 80bd 229d 5bbd
00000150: 6b8a e7be a1bc cebd a7f7 8fbd b9da c43f
00000160: e83d 5ebd d1e7 e33d 2942 3ebf 8a7a e93d
00000170: 60c5 303e ed29 113e 09ef 82bd a66c da3e
00000180: d84a e1bc 0b1a 633c 0253 dcbc 9cae b33d
00000190: fc0f 893d c74c 14be 7bcb 4fbc 6b34 f73d
000001a0: 3d08 e2bd 0aff a7bd fa3b f5bd 545e d03d
000001b0: 5b58 a9bd a8bf adbd a00f 85bd eed4 8e3d
000001c0: 3a87 873d f1ed a9bc ed55 82bd 4b99 2a39
000001d0: 9161 ae3d 6d60 833c 462f 2cbd 54ac 33bd
000001e0: e01b 74bd e7bf 983c 5dfe c0bd 5855 a1bd
000001f0: fe55 ae3d 801a 173c 96bc 80bd 309c a5bc
00000200: 33ee c8bd 5239 a23d e624 19be 5445 0cbe
00000210: 620e cc3d 01dd 603c 56fb 6ebd d8dc 32bd
00000220: 7c18 25bd a8bb 5f3d 0046 e539 88c1 3fbd
00000230: ed0b e2bd b93a b0bc 1e7e 2dbe 73e5 6b3d
00000240: e062 673c d871 c03d 1fcf 023e 6ce4 033d
00000250: 3724 80bd d004 bdbd b9ce 8f3c a554 05be
00000260: f560 9cbe 9a43 0b3e 5417 0f3d 6b73 16bd
00000270: 3920 c33b 8c1b f1be 81b1 f93c 0534 80bd
00000280: 6cc9 b23d ea46 8b3d 0f1b 9cbe ee94 2bbd
00000290: 29ff f63e 8414 13be 3f91 9c3c 65b1 0cbb
000002a0: 1ea1 b0bd c9b5 bf3d 2896 50bd f87c 6cbe
000002b0: 23e0 ad3d 5527 ddbd a53c 6fbd 2971 023e
000002c0: b394 26be e645 01be b5f8 1a3e 9e89 2ebf
000002d0: a130 07bf afcf 343c 41f1 04be aa6b 813c
000002e0: 606d 38be fb74 943d c2fd 11bd d611 98bf
000002f0: dca5 213d 8062 fbbb 0851 123f 1b19 0c3e
00000300: 4acb e03c 9d2d 03ba 8408 ed3d 7b0d 86be
00000310: 280b 063d 58a7 b83d f6b8 27bd ace2 dcbd
00000320: 7c69 a9bd e2bd 1fbe d37d 153d 781f 4f3d
00000330: d042 99bc 6074 f9bc b095 f9bd 7587 0b3d
00000340: e850 ac3d 0619 5bbb 9986 06be 5074 243c
00000350: ba9f 803b ed41 d2bc 301b dabd 1286 2bbe
00000360: a49f e6bc a8fc a5bd 6353 a9bd ffac 073e
00000370: b262 22be 7e1f 2bbd b447 efbc ae2b cdbd
00000380: 301f d2bd c00c 74bc b080 c0bc f87b ffbd
00000390: c48e 17be a3ed e2bd 4720 483d 4302 eebd
000003a0: 2401 7a3d 30b7 7a3d 7603 2f3c 30f1 ecbd
000003b0: f207 e83d 346a f5bd 0448 b4bd b678 50bd
000003c0: a919 fcbb e488 2dbd 40a2 55bd 364a ec3d
000003d0: 9c61 a2bd a943 28be 4c0e 4abd 753a 073e
000003e0: 06b0 b3bd d87f 0a3d 8a92 9f3d cb54 fd3a
000003f0: fb37 24be 638a 03be 20b0 d53d 3c4e 2f3d

bias f4 [10]
-0.1462261 0.48440117 0.03954084 0.5090864 -0.17366463 -0.020895004 0.1559502 -0.027477548
0.686458 0.41887215
00000000: 4bbc 15be 6e03 f83e 93f5 213d 7c53 023f
00000010: 24d5 31be 002c abbc 69b1 1f3e 9818 e1bc
00000020: b6bb 2f3f 6976 d63e

weight f4 [1, 10]
0.054464735 -0.69520473 -0.038788334 -0.03570249 -0.18359308 -0.091447435 -0.43863705 -0.07377699
0.48954737 0.20392635
00000000: 6a16 5f3d f0f8 31bf 84e0 1ebd c63c 12bd
00000010: d3ff 3bbe cb48 bbbd 0995 e0be 6418 97bd
00000020: f4a5 fa3e 12d2 503e
